examples/cifar10.tflite (tflite, 493336 bytes, 10 tensors)

sequential/conv2d/BiasAdd/ReadVariableOp f4 [32]
-0.0009414657 0.00034059037 -0.0035446296 -0.0015664005 0.028861666 0.0073145693 -0.0014226598 0.01492118
0.08073887 -0.28727713 0.0043534623 0.0121596055 0.03948455 -0.009433491 -0.06683107 -0.004443801
0.16608465 -0.003342472 0.07226469 -0.06658731 0.02116295 0.007415452 -0.04740265 0.017881708
0.02305347 0.048998978 0.024579767 0.059135266 -0.09896625 0.0020101028 -0.11764744 -0.0076652686
00000000: b2cc 76ba 4491 b239 044d 68bb ae4f cdba
00000010: 4d6f ec3c 0eaf ef3b 8b78 baba f777 743c
00000020: 6c5a a53d fd15 93be 7da7 8e3b 1539 473c
00000030: 8dba 213d ee8e 1abc bade 88bd 4e9d 91bb
00000040: 1812 2a3e 600d 5bbb 83ff 933d ed5e 88bd
00000050: ec5d ad3c 52fd f23b 4829 42bd a97c 923c
00000060: a1da bc3c 27b3 483d 825b c93c d237 723d
00000070: d1ae cabd eebb 033b 24f1 f0bd ef2c fbbb

sequential/conv2d_1/BiasAdd/ReadVariableOp f4 [64]
-0.082286075 -0.0012515597 0.06668794 0.015744386 0.008139782 0.10507734 0.08306353 0.0782397
0.15862677 -0.12538378 -0.017563598 -0.047435794 0.07199037 -0.014161647 -0.0441286 -0.055997595
0.07769504 -0.02392694 0.081795916 -0.13539039 0.008007443 0.006619503 0.03443347 -0.06686082
-0.10414876 -0.070539124 -0.08311842 -0.05992991 0.11704684 0.016779209 -0.032844592 -0.052779216
0.13121209 0.15846618 0.025823744 -0.020745158 0.0788492 0.05531328 0.059997875 0.39699572
-0.014593081 0.08919536 -0.13362378 0.06190834 -0.09100054 -0.018410116 0.036622208 0.15114549
0.06130032 0.09361035 0.02163294 0.005244384 0.03159792 -0.09073962 0.087901436 0.07785562
0.05086225 0.050146725 -0.05618068 -0.19042142 -0.044467337 0.060155302 -0.035413634 -0.08000238
00000000: 9a85 a8bd 600b a4ba b093 883d 5ffa 803c
00000010: b85c 053c ca32 d73d 361d aa3d 233c a03d
00000020: 0e6f 223e 9b64 00be 89e1 8fbc 094c 42bd
00000030: b06f 933d 4106 68bc 31c0 34bd bc5d 65bd
00000040: 941e 9f3d 6e02 c4bc 9e84 a73d c7a3 0abe
00000050: a631 033c 6ae8 d83b 1c0a 0d3d 53ee 88bd
00000060: f24b d5bd d176 90bd fd39 aabd 1179 75bd
00000070: 41b6 ef3d 8d74 893c 0d88 06bd 052f 58bd
00000080: 765c 063e f544 223e 518c d33c c0f1 a9bc
00000090: b07b a13d 2e90 623d 55c0 753d 0643 cb3e
000000a0: d117 6fbc 0fac b63d acd4 08be 9993 7d3d
000000b0: 7e5e babd d0d0 96bc 2b01 163d e2c5 1a3e
000000c0: 0b16 7b3d c8b6 bf3d 9037 b13c 15d9 ab3b
000000d0: d26c 013d b2d5 b9bd ab05 b43d c472 9f3d
000000e0: ef54 503d a766 4d3d b61d 66bd d5fd 42be
000000f0: 6223 36bd 6865 763d e30d 11bd 4ad8 a3bd

sequential/conv2d_2/BiasAdd/ReadVariableOp f4 [64]
0.06755687 -0.034108285 -0.047105663 0.017631326 0.0011485739 -0.080134034 0.18781471 -0.04225046
-0.038206995 -0.037959255 -0.109476715 -0.1251045 0.12563035 0.28842163 0.09929864 0.26802048
0.010243529 0.070184425 -0.049536727 -0.009659838 0.3225223 0.057028886 -0.0095152585 -0.0012345947
0.035229135 -0.07923179 0.25170025 0.2572837 0.3110789 -0.040832832 0.19463782 0.082591325
0.1640571 0.19732551 -0.05055782 0.04245173 -0.05653437 0.12567016 -0.01889988 -0.054344557
0.14383815 0.0933743 -0.033389702 0.016042296 0.18156081 0.019056043 -0.04081745 -0.04429033
0.23168439 -0.09720831 -0.023799578 0.048828576 0.1982351 -0.015444484 -0.068787955 -0.034200083
-0.061025128 -0.04293401 -0.051396344 0.23574515 -0.060178626 -0.049015928 -0.030658947 -0.0031867616
00000000: 425b 8a3d 21b5 0bbd def1 40bd 926f 903c
00000010: bf8b 963a 501d a4bd 8052 403e d10e 2dbd
00000020: f07e 1cbd 2a7b 1bbd 5435 e0bd 651b 00be
00000030: 3ea5 003e 00ac 933e 165d cb3d fb39 893e
00000040: 7ad4 273c dabc 8f3d 06e7 4abd 4c44 1ebc
00000050: a521 a53e 1f97 693d e3e5 1bbc 20d2 a1ba
00000060: 6d4c 103d 4744 a2bd dbde 803e b0ba 833e
00000070: bc45 9f3e 5440 27bd 234f 473e a425 a93d
00000080: 96fe 273e b30f 4a3e b715 4fbd dee1 2d3d
00000090: 9590 67bd aeaf 003e ecd3 9abc 6698 5ebd
000000a0: 4f4a 133e 063b bf3d a4c3 08bd 226b 833c
000000b0: 14eb 393e 6b1b 9c3c 3330 27bd c769 35bd
000000c0: ac3e 6d3e 2715 c7bd 55f7 c2bc 7900 483d
000000d0: 24fe 4a3e dc0a 7dbc b3e0 8cbd 6315 0cbd
000000e0: 7cf5 79bd 93db 2fbd f984 52bd 2d67 713e
000000f0: dd7d 76bd edc4 48bd 7928 fbbc fdd8 50bb

sequential/dense/BiasAdd/ReadVariableOp f4 [64]
-0.07238298 -0.012201998 -0.010369187 -0.052175537 0.040332653 -0.014222824 0.0056497417 -0.00884723
-0.109599605 -0.040308855 0.083218545 0.03907758 -0.033104558 -0.04893213 -0.03819783 0.089517206
0.0027457946 0.07542546 -0.02552268 0.06242974 0.15757878 -0.23397453 -0.018727114 -0.026765222
-0.04316977 0.09481636 0.10271503 0.06348776 -0.010230971 -0.046665266 -0.012877207 -0.07681608
-0.0781533 -0.021933835 -0.013914022 0.106736794 -0.036948755 0.17784712 0.17535394 -0.018995184
-0.00881504 -0.029225616 -0.020374928 0.33502322 -0.0998905 0.01909183 -0.026786825 -0.022854565
-0.05727227 -0.008482291 -0.15835966 0.003325152 -0.011226022 -0.028184365 0.07713009 -0.009575708
-0.0459764 0.033527 0.02978657 0.19255368 0.1122728 0.23417024 -0.046162058 0.21546997
00000000: 873d 94bd e4ea 47bc 86e3 29bc 04b6 55bd
00000010: da33 253d d906 69bc 7821 b93b f9f3 10bc
00000020: c275 e0bd e61a 25bd 7c6e aa3d d00f 203d
00000030: a598 07bd 0f6d 48bd 5475 1cbd cc54 b73d
00000040: caf2 333b aa78 9a3d f014 d1bc 54b6 7f3d
00000050: 555c 213e 0597 6fbe 9b69 99bc bd42 dbbc
00000060: c9d2 30bd 142f c23d 425c d23d df05 823d
00000070: cd9f 27bc 1424 3fbd ecfa 52bc c051 9dbd
00000080: d60e a0bd 96ae b3bc a3f7 63bc d298 da3d
00000090: 9457 17bd 8e1d 363e fc8f 333e ca9b 9bbc
000000a0: f56c 10bc 8f6a efbc 52e9 a6bc 2a88 ab3e
000000b0: 6493 ccbd 7866 9c3c 0b70 dbbc 7f39 bbbc
000000c0: 5496 6abd 4ff9 0abc 0929 22be cbea 593b
000000d0: 59ed 37bc e6e2 e6bc 61f6 9d3d 6ee3 1cbc
000000e0: c051 3cbd 9c53 093d f702 f43c cb2c 453e
000000f0: 48ef e53d 53ca 6f3e 6d14 3dbd 29a4 5c3e

sequential/dense_1/BiasAdd/ReadVariableOp f4 [10]
-0.16053738 -0.19585237 -0.08176044 0.17737675 0.23283418 -0.013104963 0.09062983 -0.11043356
0.023476563 -0.012709816
00000000: e963 24be 868d 48be 0472 a7bd 40a2 353e
00000010: 156c 6e3e 33b6 56bc 229c b93d fe2a e2bd
00000020: ec51 c03c d53c 50bc

sequential/dense/MatMul f4 [64, 1024]
0.04149643 -0.011520959 0.01901896 -0.3633444 0.11397189 -0.030880045 -0.012508728 0.04085686
0.049143244 0.0071980236 0.22389115 -0.12639363 0.20884968 0.06702635 0.37118152 0.067280516
0.01493839 0.13538378 -0.04662687 -0.14882438 -0.02411772 0.18114524 -0.12984739 0.35614157
-0.046051864 0.10844656 -0.22512902 -0.045205083 -0.3192738 0.04917893 -0.42692238 -0.023633469
-0.1273105 -0.0862094 0.017419286 0.06973811 -0.032838386 0.09466325 0.4135734 -0.08985347
0.052298162 -0.084207304 0.02115814 -0.15690207 0.19764511 -0.087134205 -0.003623199 -0.058689166
0.2514058 0.006619029 0.029288715 -0.016835408 0.26212642 -0.027569681 0.043918435 -0.21705721
0.054345056 0.02351417 0.09253197 0.07130781 0.24938898 0.06741777 0.13851105 0.050889745
0.14903888 0.0041728914 0.024377374 -0.02957853 0.1704534 -0.16623715 0.1166347 0.03922969
0.011880778 -0.03797597 -0.05072934 -0.1267948 0.12433598 0.09134115 0.010578162 0.08407118
0.07941133 0.08994057 -0.033906434 0.03918282 -0.0032912437 0.026633875 -0.06592552 0.21865176
-0.14525275 0.0008303605 -0.12160587 -0.16943628 0.0085361665 -0.034920864 -0.024178686 -0.026073534
0.1477814 0.07847969 -0.13760938 -0.0005026778 0.0043904698 0.13175592 -0.09772274 0.04267273
0.024482608 0.01813838 0.056289807 -0.030575506 0.20651713 0.08520292 0.019089943 -0.06369057
0.11853778 0.1181329 -0.05907523 0.13211478 0.14262225 -0.021025604 0.12496749 0.17261288
-0.0137925 -0.059848722 0.055918384 0.05275907 -0.056628313 0.017401678 0.04118775 0.0380741
0.2537518 -0.06713613 0.022811681 0.04864273 0.1256913 -0.025593936 -0.0052014682 0.00042035762
-0.06064586 -0.030576179 -0.04510646 -0.10551455 0.058056053 -0.093871705 0.22045945 0.17356128
0.13291658 -0.030339006 -0.06905494 -0.07393169 -0.04790623 -0.019743288 -0.053208295 0.13131024
0.12414061 0.051070824 -0.16251242 -0.15359 -0.11665817 0.009728821 0.047700603 -0.062217627
0.014893687 0.01240849 0.038696013 -0.18602239 0.03153135 -0.1475933 -0.04116562 -0.010463349
-0.03986923 -0.0072588823 0.057925127 -0.03539468 0.19644655 -0.011429596 0.041525625 -0.029756393
0.2105209 0.18848805 -0.015052343 -0.086592145 -0.13602962 -0.07294139 -0.06568801 -0.1416633
0.030772489 -0.057643704 0.06578833 -0.09009195 0.18364824 -0.024456657 0.09274155 0.14164191
-0.06477797 0.029602867 0.0074756993 -0.13172325 0.44407094 -0.091875665 -0.06219317 0.009661798
-0.0050600274 0.05613301 -0.055424385 -0.026189033 0.049135167 0.025696198 -0.058190763 0.32751584
-0.11526922 0.0518353 -0.005055353 -0.04457985 0.044620678 -0.10869393 -0.11658523 0.13565947
-0.019235037 0.0053787646 -0.0037338696 -0.12061056 -0.10256906 -0.08127532 0.13082337 0.08120219
-0.16659667 -0.042775955 0.018973993 0.14053722 0.010140499 0.068489045 -0.3254179 -0.08245989
0.013803838 -0.095286004 0.01462116 -0.15941577 0.25400037 -0.24789515 0.05650859 0.037432235
0.14819424 0.30947396 0.0823457 0.13920857 -0.19076905 -0.06873398 -0.15989788 0.12003515
-0.04927805 0.024006603 0.13020167 -0.27179167 0.1732562 0.012459422 0.012938086 -0.037685417
00000000: 29f8 293d 68c2 3cbc a6cd 9b3c 4708 babe
00000010: 186a e93d 26f8 fcbc 68f1 4cbc 8659 273d
00000020: 6d4a 493d 66dd eb3b b943 653e 556d 01be
00000030: b1dc 553e 1c45 893d 810b be3e 5eca 893d
00000040: 26c0 743c 0ca2 0a3e d1fb 3ebd 6b65 18be
00000050: 8692 c5bc 237e 393e b7f6 04be 3058 b63e
00000060: e1a0 3cbd 3b19 de3d 3988 66be f728 39bd
00000070: db77 a3be d96f 493d 9295 dabe fa9a c1bc
00000080: af5d 02be 8e8e b0bd e4b2 8e3c dbd2 8e3d
00000090: 8b81 06bd cede c13d e5bf d33e 1905 b8bd
000000a0: 9936 563d e174 acbd d653 ad3c f0aa 20be
000000b0: 7b63 4a3e 6b73 b2bd 3173 6dbb 0d64 70bd
000000c0: 43b8 803e 71e4 d83b e3ee ef3c 69ea 89bc
000000d0: 6f35 863e d0d9 e1bc d1e3 333d 3f44 5ebe
000000e0: ec98 5e3d caa0 c03c 6781 bd3d d409 923d
000000f0: d35f 7f3e 5412 8a3d d7d5 0d3e c471 503d
00000100: a69d 183e c0bc 883b 0fb3 c73c ac4e f2bc
00000110: 568b 2e3e 123a 2abe 2cde ee3d 50af 203d
00000120: 98a7 423c b18c 1bbd 92c9 4fbd 7fd6 01be
00000130: dda3 fe3d 1211 bb3d 0750 2d3c 832d ac3d
00000140: 68a2 a23d c332 b83d 79e1 0abd 2a7e 203d
00000150: e8b1 57bb 492f da3c f603 87bd 3fe6 5f3e
00000160: 23bd 14be 8dac 593a 800c f9bd b480 2dbe
00000170: 47db 0b3c 2e09 0fbd 6112 c6bc 2a98 d5bc
00000180: 0254 173e f6b9 a03d 79e9 0cbe 23c6 03ba
00000190: eedd 8f3b 06eb 063e dc22 c8bd 9ac9 2e3d
000001a0: c08f c83c f196 943c 2490 663d 7c79 fabc
000001b0: 3a79 533e de7e ae3d 8362 9c3c 3470 82bd
000001c0: f0c3 f23d a9ef f13d def8 71bd 1949 073e
000001d0: 910b 123e e33d acbc f5ee ff3d 6ec1 303e
000001e0: f0f9 61bc ef23 75bd ad0a 653d e519 583d
000001f0: 17f3 67bd f78d 8e3c 7cb4 283d 96f3 1b3d
00000200: c2eb 813e ab7e 89bd 90df ba3c 993d 473d
00000210: 38b5 003e 60aa d1bc 1471 aabb 7263 dc39
00000220: cb67 78bd e57a fabc 8dc1 38bd 0318 d8bd
00000230: 2fcc 6d3d cf3f c0bd 1fc0 613e 0cba 313e
00000240: 491b 083e 8289 f8bc ad6c 8dbd 7f69 97bd
00000250: 5339 44bd adbc a1bc f1f0 59bd 3176 063e
00000260: 6f3d fe3d a42f 513d a869 26be b246 1dbe
00000270: 7bea eebd a265 1f3c b561 433d e9d7 7ebd
00000280: a704 743c fb4c 4b3c b67f 1e3d a77c 3ebe
00000290: 0427 013d b322 17be 489d 28bd 776e 2bbc
000002a0: eb4d 23bd ebdb edbb e642 6d3d 03fa 10bd
000002b0: 4929 493e 3343 3bbc c616 2a3d aec3 f3bc
000002c0: ca92 573e 0303 413e 1a9e 76bc 3957 b1bd
000002d0: 594b 0bbe 4c62 95bd 6f87 86bd 2f10 11be
000002e0: 9616 fc3c ce1b 6cbd 08bc 863d 2182 b8bd
000002f0: 490e 3c3e 5459 c8bc 48ef bd3d 940a 113e
00000300: 50aa 84bd b681 f23c b6f6 f43b 76e2 06be
00000310: 445d e33e 4f29 bcbd 44be 7ebd 854c 1e3c
00000320: 96ce a5bb baeb 653d ae04 63bd 628a d6bc
00000330: f541 493d d580 d23c 7059 6ebd 28b0 a73e
00000340: 4512 ecbd 4051 543d 60a7 a5bb 5c99 36bd
00000350: 2cc4 363d ec9a debd 3dc4 eebd 51ea 0a3e
00000360: cc92 9dbc 5940 b03b f0b3 74bb ab02 f7bd
00000370: ba0f d2bd ad73 a6bd 90f6 053e 554d a63d
00000380: 5198 2abe d735 2fbd 596f 9b3c fde8 0f3e
00000390: 5624 263c fc43 8c3d 2d9d a6be bbe0 a8bd
000003a0: 7e29 623c 4f25 c3bd 978d 6f3c e33d 23be
000003b0: 560c 823e 3ad8 7dbe 8d75 673d 8b52 193d
000003c0: 3bc0 173e 5f73 9e3e dda4 a83d b18c 0e3e
000003d0: f658 43be 67c4 8cbd 45bc 23be fdd4 f53d
000003e0: c8d7 49bd 7fa9 c43c 9653 053e 4728 8bbe
000003f0: 136a 313e 9b22 4c3c 44fa 533c 065c 1abd

sequential/dense_1/MatMul f4 [10, 64]
-0.08114594 0.14761995 -0.24651542 -0.15106796 -0.3112691 0.18930377 0.03316164 0.058906436
0.109166555 0.15925 0.04385414 -0.12550454 0.19980001 0.22373477 -0.24027626 0.10024682
0.25813922 -0.14535694 0.07348181 -0.124363974 -0.052594516 0.23963177 0.32825693 -0.14497748
0.17088129 -0.3308695 0.119715795 -0.017364586 0.15454783 -0.16609663 -0.30194947 0.19322152
0.3409353 0.24010041 0.05484579 -0.53230196 -0.2635323 -0.04376914 -0.27243546 0.12227708
0.5767489 0.009394841 0.20641027 -0.4122208 -0.14166778 0.1512016 -0.07401174 -0.21188217
0.21245617 0.118046425 0.27194792 -0.14813244 -0.09790246 -0.14405036 -0.29722303 0.12255451
0.03482631 0.28539455 0.21954885 -0.20869641 -0.40888843 -0.31919396 -0.021796215 -0.029311327
0.20058118 -0.05267853 0.0054369746 0.044490356 0.4434296 -0.16508865 0.20634939 -0.1342812
0.24480802 0.12745298 0.121564716 -0.38044336 -0.06864399 -0.29792753 -0.14701554 0.24186721
-0.18928164 0.14669542 -0.26784804 -0.039686833 -0.19140106 0.27169418 -0.29660153 -0.15157345
-0.2696375 0.16682671 -0.42781645 -0.06921187 -0.23209195 0.35836342 -0.20425268 0.05124814
-0.33159828 0.014604387 0.08557693 0.03892763 0.16161829 0.027799381 -0.36004224 -0.1070164
0.05740707 -0.16919388 -0.17043598 -0.08161148 0.30805346 -0.10650047 -0.05433593 -0.015009222
-0.19529523 -0.23006219 0.17747822 0.1022584 0.080078356 -0.06422307 -0.23125051 0.07643994
-0.09708367 0.07824528 0.79185003 -0.40518302 0.12850687 -0.293813 0.007394243 -0.48971054
0.25814664 0.02421391 -0.04049139 0.14437823 -0.4040084 -0.002063269 -0.27679977 -0.21868442
0.02898123 0.13874799 0.12731703 0.29213822 0.055032507 -0.0149408765 0.15243253 -0.24836892
0.112244785 0.2085799 -0.1625757 -0.053974133 -0.39994833 0.25461864 -0.17510691 -0.12073083
0.020649841 -0.2571148 0.261486 -0.108615264 0.20023635 -0.2613864 -0.19404548 0.103406034
-0.06985361 -0.054715775 -0.018973613 -0.0068279766 -0.09733733 -0.36516634 -0.045952506 0.035616737
0.05664785 -0.19541104 0.1909503 -0.0122509645 0.21835266 0.15652616 0.2246156 -0.03817221
0.06779002 -0.049875297 0.025940612 -0.31085923 -0.21097285 -0.014116693 -0.07453251 0.2366882
0.20150386 -0.24974135 -0.12892157 0.113554746 -0.085232325 0.11483446 -0.20906703 -0.1277798
0.14154837 -0.072158664 -0.18085968 -0.2038323 -0.09195808 0.015061394 0.0116905635 0.05289224
-0.1330712 -0.067704506 -0.28933072 -0.053711534 -0.14513098 -0.13334537 -0.09420127 -0.13387932
-0.07057223 -0.25099397 -0.2579162 0.0845912 -0.1767338 -0.14552882 -0.20945613 -0.088960156
-0.14182863 -0.22369179 -0.12551327 0.14581308 -0.20638628 0.10762824 -0.05568446 -0.16942352
-0.0031243428 -0.20760675 -0.29857898 0.0016129252 -0.11068508 0.22552115 -0.23397517 0.019617863
-0.05928325 -0.09528291 -0.20558526 0.3074896 -0.2802798 0.21485247 0.21887983 0.15811539
0.058708243 0.0068090227 0.002300363 -0.05243343 -0.1877468 -0.080090255 -0.25845996 -0.19677305
-0.11663783 -0.05951138 -0.12149218 0.19672 0.29827192 0.24871005 -0.2903524 0.0008950529
00000000: d82f a6bd af29 173e 8a6e 7cbe 8fb1 1abe
00000010: aa5e 9fbe d9d8 413e 80d4 073d e047 713d
00000020: b792 df3d 6f12 233e 66a0 333d 4384 00be
00000030: 6098 4c3e ba1a 653e fb0a 76be 344e cd3d
00000040: d32a 843e 73d8 14be a27d 963d 8ab2 febd
00000050: 596d 57bd 0862 753e 4b11 a83e fa74 14be
00000060: 81fb 2e3e ba67 a9be 8e2d f53d 2d40 8ebc
00000070: c941 1e3e 3c15 2abe 1f99 9abe dddb 453e
00000080: 128f ae3e e2dc 753e fba5 603d f144 08bf
00000090: b5ed 86be 4547 33bd a97c 8bbe 686c fa3d
000000a0: d1a5 133f d2ec 193c 375d 533e 9b0e d3be
000000b0: 5c11 11be 98d4 1a3e 7893 97bd a4f7 58be
000000c0: 1c8e 593e 53c2 f13d c23c 8b3e 08b0 17be
000000d0: 1681 c8bd f081 13be 9e2d 98be dcfd fa3d
000000e0: 08a6 0e3d 3c1f 923e 6ad1 603e 83b4 55be
000000f0: d359 d1be 646d a3be fa8d b2bc 4f1e f0bc
00000100: 2765 4d3e 71c5 57bd a628 b23b 853b 363d
00000110: 3409 e33e 000d 29be 414d 533e 0381 09be
00000120: f4ae 7a3e 0983 023e ecf6 f83d 79c9 c2be
00000130: 3895 8cbd f589 98be 3e8b 16be 0aac 773e
00000140: 0cd3 41be 5337 163e 6123 89be a98e 22bd
00000150: a4fe 43be 801b 8b3e 28dc 97be 1236 1bbe
00000160: ed0d 8abe 9fd4 2a3e c20a dbbe f4be 8dbd
00000170: 83a9 6dbe 697b b73e 9d27 51be 92e9 513d
00000180: 40c7 a9be 3d47 6f3c f542 af3d 9472 1f3d
00000190: 447f 253e 87bb e33c 7557 b8be 6a2b dbbd
000001a0: ad23 6b3d 2941 2dbe c586 2ebe eb23 a7bd
000001b0: 2fb9 9d3e eb1c dabd 5a8f 5ebd 3de9 75bc
000001c0: 79fb 47be 6c95 6bbe dabc 353e da6c d13d
000001d0: 1f00 a43d 6387 83bd efcc 6cbe 8b8c 9c3d
000001e0: ced3 c6bd 103f a03d afb6 4a3f 2674 cfbe
000001f0: 4e97 033e a86e 96be 684b f23b 57bb fabe
00000200: cc2b 843e 405c c63c 4dda 25bd e3d7 133e
00000210: 30da cebe e937 07bb b3b8 8dbe cfee 5fbe
00000220: 0b6a ed3c f413 0e3e 655f 023e 2493 953e
00000230: c469 613d 94ca 74bc 4617 1c3e 6c54 7ebe
00000240: 98e0 e53d f895 553e 3f7a 26be fb13 5dbd
00000250: 07c6 ccbe 605d 823e 3a4f 33be ba41 f7bd
00000260: db29 a93c 8da4 83be 7ee1 853e ae71 debd
00000270: c20a 4d3e 70d4 85be dcb3 46be 8bc6 d33d
00000280: 690f 8fbd a61d 60bd 8d6e 9bbc 38bd dfbb
00000290: cb58 c7bd 15f7 babe b238 3cbd dbe2 113d
000002a0: 9307 683d d519 48be 7a88 433e 45b8 48bc
000002b0: d797 5f3e 6548 203e a201 663e 775a 1cbd
000002c0: 7ed5 8a3d 0a4a 4cbd 6881 d43c f128 9fbe
000002d0: 4409 58be b449 67bc 80a4 98bd 645e 723e
000002e0: 0757 4e3e 32bc 7fbe 0404 04be 648f e83d
000002f0: 498e aebd 542e eb3d ab15 56be b5d8 02be
00000300: 0ef2 103e ecc7 93bd 4833 39be 6ab9 50be
00000310: 8554 bcbd 11c4 763c c789 3f3c 89a5 583d
00000320: d143 08be a9a8 8abd 2823 94be a000 5cbd
00000330: 379d 14be b08b 08be 98ec c0bd a917 09be
00000340: 2c88 90bd 4882 80be 980d 84be 273e ad3d
00000350: b5f9 34be 8205 15be ab7b 56be be30 b6bd
00000360: 863b 11be 760f 65be 8d86 00be 0650 153e
00000370: ed56 53be 326c dc3d 6315 64bd 5c7d 2dbe
00000380: c6c1 4cbb dd96 54be 58df 98be ca68 d33a
00000390: dcae e2bd 04ef 663e 3097 6fbe a4b5 a03c
000003a0: fed2 72bd b023 c3bd f184 52be 476f 9d3e
000003b0: d580 8fbe 4902 5c3e 0922 603e 00e9 213e
000003c0: 0e78 703d 391e df3b b0c1 163b 70c4 56bd
000003d0: b240 40be 5c06 a4bd dd54 84be e07e 49be
000003e0: d1df eebd 34c2 73bd e4d0 f8bd f870 493e
000003f0: 19b7 983e d9ad 7e3e 12a9 94be fca1 6a3a

sequential/conv2d/Conv2D f4 [32, 3, 3, 3]
-0.1820839 -0.023646288 -0.1581518 -0.055701323 0.024879588 0.16735786 -0.12281255 0.006874702
0.024158271 0.17155401 0.2694455 0.22788444 0.16878831 0.22779621 0.06836084 -0.0038810016
0.09198117 0.118428394 -0.02119707 -0.09246964 -0.1543474 0.019958714 -0.24823053 -0.2601976
-0.14243978 -0.10115212 -0.25585464 0.030924723 0.23046741 0.1592662 -0.09218422 -0.0014089207
-0.08361118 -0.043078676 -0.06454669 -0.07795295 0.23449206 0.026671236 0.24557804 -0.29484645
-0.40049145 -0.37513396 0.14528579 0.09963697 0.16905826 -0.040172454 0.029051337 0.0080975965
-0.17889734 -0.03893987 -0.21464661 0.20843649 0.06565452 0.1608495 0.17590943 0.17577356
0.21261857 -0.1696269 -0.2594893 -0.19849801 -0.016131649 -0.04010314 0.10005716 0.03460904
0.110671535 -0.02810365 -0.3111016 -0.29735163 -0.25597927 0.16125935 0.22632179 0.0683727
-0.081686296 -0.14802125 -0.09501276 -0.08013608 -0.010276742 0.049224865 0.26774916 0.12951155
0.14786689 -0.07446748 0.111999735 -0.19418369 -0.018063817 0.30850264 0.027911652 -0.078261465
0.07186313 -0.07353452 -0.26276192 0.181718 -0.09788407 -0.049630966 0.3210444 -0.08692382
-0.037312116 0.0025573322 -0.25600073 -0.23781596 0.1718897 -0.08275321 0.088087775 0.21930794
0.088618696 -0.03971756 0.052270543 -0.14083587 0.03053483 0.016959835 0.109939806 -0.14752358
-0.030949144 0.04909138 0.10688173 -0.044434577 0.075643174 0.09429239 -0.12138166 0.09743173
-0.19838844 -0.28123754 -0.20599028 -0.05498438 0.05081447 -0.10454113 0.19536808 0.07337646
-0.08767995 -0.13847956 -0.12470707 -0.12255597 0.056204643 0.12694901 0.15878145 0.114296235
-0.15827383 0.00017267387 0.17184816 -0.22490376 -0.02457687 0.083480276 -0.19952479 0.19125621
0.3126813 -0.26188663 -0.08537432 0.23153387 -0.23700708 -0.060756594 -0.047037385 -0.11643336
0.16899194 0.2204546 -0.20440951 -0.078693435 0.023957776 0.027501557 -0.111779526 -0.020692049
0.03511813 0.060163796 -0.14969261 -0.06064141 0.122750826 -0.02528211 -0.048665613 0.059377916
-0.027545793 0.046156395 -0.049111534 -0.17727092 0.06827669 0.20615229 -0.08272831 -0.09654234
0.16252732 -0.12041238 0.05594866 0.19163957 -0.12716147 0.14498292 0.17973271 -0.25832504
0.0009333736 0.1912204 -0.23784631 0.026174802 0.078036524 -0.15322044 -0.21419479 -0.23120485
-0.2297751 -0.23079531 -0.2235053 0.0084854895 -0.13611686 -0.15201417 0.051298384 -0.14830752
-0.15983076 0.08300194 0.17576937 -0.061865468 -0.018953217 0.21450977 0.23339699 0.13178357
0.14191468 0.20792024 0.017831685 0.14584579 0.22225243 0.102547176 -0.020044481 0.09574637
0.008658429 0.040124513 -0.08081568 -0.12148347 -0.27676126 -0.22594571 -0.27723697 -0.20910446
-0.3173727 -0.15580043 -0.19914566 -0.0852317 -0.17082942 -0.25889683 -0.08049085 0.010955743
0.28249973 0.20338039 -0.04828838 -0.16951111 -0.20808756 0.074813545 0.22225267 0.041434824
0.27427045 0.31581116 0.04811059 -0.15785985 -0.10019491 0.032923434 0.010926568 0.036183685
-0.04561349 0.078668624 0.11765234 0.061951444 -0.1412021 0.009552746 0.077456184 0.047876682
00000000: 3474 3abe dcb5 c1bc 8cf2 21be 1227 64bd
00000010: 47d0 cb3c dc5f 2b3e 2585 fbbd 2e45 e13b
00000020: 91e7 c53c dbab 2f3e c3f4 893e 8a5a 693e
00000030: d8d6 2c3e 6943 693e c500 8c3d 6758 7ebb
00000040: a060 bc3d 968a f23d 7aa5 adbc b960 bdbd
00000050: 3f0d 1ebe 7580 a33c 2530 7ebe 9f38 85be
00000060: bcdb 11be d828 cfbd 61ff 82be d855 fd3c
00000070: a6ff 6b3e ae16 233e 15cb bcbd 89ab b8ba
00000080: 573c abbd 4473 30bd 0e31 84bd cca5 9fbd
00000090: b01e 703e a37d da3c cf78 7b3e 1df6 96be
000000a0: 370d cdbe 8f11 c0be ccc5 143e 780e cc3d
000000b0: 9c1d 2d3e df8b 24bd 12fd ed3c c8ab 043c
000000c0: dd30 37be 6a7f 1fbd 52cc 5bbe 6070 553e
000000d0: e175 863d bbb5 243e 9a21 343e fcfd 333e
000000e0: afb8 593e adb2 2dbe c8db 84be 1043 4bbe
000000f0: 8526 84bc 3143 24bd c5ea cc3d 35c2 0d3d
00000100: c2a7 e23d a039 e6bc b548 9fbe 793e 98be
00000110: b70f 83be 2c21 253e e6c0 673e fc06 8c3d
00000120: 254b a7bd e292 17be 0d96 c2bd 631e a4bd
00000130: c85f 28bc 03a0 493d 6b16 893e ad9e 043e
00000140: 6b6a 173e 6882 98bd 1e60 e53d 17d8 46be
00000150: 92fa 93bc 0ff4 9d3e faa6 e43c 8c47 a0bd
00000160: fa2c 933d 4499 96bd bb88 86be 4914 3a3e
00000170: 7177 c8bd d749 4bbd ee5f a43e 1e05 b2bd
00000180: 97d4 18bd ea98 273b 8712 83be 0786 73be
00000190: db03 303e 847a a9bd 5d67 b43d 4392 603e
000001a0: b87d b53d e1ae 22bd a319 563d 4737 10be
000001b0: 2e24 fa3c 5aef 8a3c 1f28 e13d 6c10 17be
000001c0: 0f89 fdbc 0b14 493d cfe4 da3d 0801 36bd
000001d0: cfea 9a3d 5e1c c13d f396 f8bd 498a c73d
000001e0: 5726 4bbe 5efe 8fbe 1eef 52be 4d37 61bd
000001f0: d522 503d a919 d6bd 920e 483e 6646 963d
00000200: 8c91 b3bd 96cd 0dbe 6c66 ffbd a0fe fabd
00000210: d736 663d ecfe 013e 9b97 223e 2514 ea3d
00000220: 8912 22be ca0f 3539 f7f8 2f3e 2c4d 66be
00000230: 6f55 c9bc b5f7 aa3d 3a50 4cbe abd8 433e
00000240: c317 a03e 0116 86be bbd8 aebd 3717 6d3e
00000250: fcb1 72be e8db 78bd 46aa 40bd 9d74 eebd
00000260: 390c 2d3e dabe 613e ba50 51be 062a a1bd
00000270: 1943 c43c f24a e13c aaec e4bd 5f82 a9bc
00000280: 07d8 0f3d 506e 763d 0549 19be 2163 78bd
00000290: c964 fb3d 6d1c cfbc 9855 47bd 4236 733d
000002a0: b7a7 e1bc 7d0e 3d3d 2d29 49bd 8286 35be
000002b0: a6d4 8b3d 9619 533e 766d a9bd feb7 c5bd
000002c0: 906d 263e c49a f6bd 6c2a 653d 2a3d 443e
000002d0: 9e36 02be 6776 143e da0b 383e 2e43 84be
000002e0: a4ad 743a 48cf 433e fc8d 73be 8a6c d63c
000002f0: 9dd1 9f3d d2e5 1cbe e155 5bbe f7c0 6cbe
00000300: 2a4a 6bbe 9b55 6cbe 93de 64be b906 0b3c
00000310: 3862 0bbe 9aa9 1bbe 411e 523d eddd 17be
00000320: adaa 23be ecfc a93d e3fc 333e a566 7dbd
00000330: c743 9bbc 73a8 5b3e 9fff 6e3e 46f2 063e
00000340: 1552 113e 0be9 543e c113 923c 9958 153e
00000350: 2496 633e 4104 d23d 5334 a4bc ac16 c43d
00000360: 15dc 0d3c 9a59 243d b182 a5bd 53cc f8bd
00000370: a7b3 8dbe 505e 67be 01f2 8dbe 7b1f 56be
00000380: ad7e a2be 268a 1fbe d7ec 4bbe f58d aebd
00000390: e8ed 2ebe 208e 84be 63d8 a4bd b77f 333c
000003a0: cea3 903e f342 503e 09ca 45bd 5294 2dbe
000003b0: e814 55be d837 993d 3496 633e 90b7 293d
000003c0: 2d6d 8c3e 00b2 a13e 9c0f 453d 03a6 21be
000003d0: fd32 cdbd b9da 063d 5905 333c 5835 143d
000003e0: 36d5 3abd 041d a13d b6f3 f03d ccc0 7d3d
000003f0: 4997 10be 1f83 1c3c 59a1 9e3d 571a 443d

sequential/conv2d_1/Conv2D f4 [64, 3, 3, 32]
0.16632861 0.1467832 0.102853246 -0.11348367 -0.00027056332 0.09706157 -0.0897467 0.10201017
0.105004065 -0.017178096 -0.069169916 -0.1628736 -0.113522954 -0.073437124 -0.06616811 -0.27675447
-0.08256983 0.017201096 -0.16181302 -0.078821845 0.015067831 -0.088291414 -0.06572763 -0.17068724
-0.2762443 -0.06278769 -0.06508046 -0.06925 0.035500284 -0.033653945 -0.0009005386 -0.0132606095
-0.11860858 0.018540269 -0.062966354 -0.052137475 -0.12381809 0.07007062 0.06408883 0.067525834
0.06396445 -0.024316162 -0.028928226 -0.11732455 -0.11140474 -0.11022712 0.0349769 -0.2227395
-0.060216896 -0.07111012 0.120334834 -0.13622874 0.09590264 -0.23615342 -0.0053430116 -0.04489163
-0.20402937 -0.11395325 -0.12001511 -0.17409346 0.05601792 0.0072280066 -0.058566075 -0.11262697
0.020402124 -0.31844422 -0.094954744 -0.051164426 -0.25251138 0.1291025 0.018854382 0.1728277
-0.12137106 0.013383357 -0.25144303 -0.06463669 -0.01698222 -0.10478486 0.032597966 -0.1033017
-0.042095594 -0.022623204 -0.06258451 0.092042334 0.15260918 -0.10279728 0.05222871 -0.048139732
-0.078695804 -0.090791695 -0.0425084 -0.33617848 0.21019244 0.08345682 0.049057547 0.05513491
0.10275264 -0.0038424823 0.074466616 -0.03116071 -0.07395753 -0.057894673 -0.024704274 0.14670604
-0.21709585 0.012349261 -0.094452105 0.15436082 -0.09188499 -0.042732187 0.027934756 -0.13804936
-0.21230036 -0.2395381 0.07250386 -0.20175666 0.050783683 -0.26326326 -0.04851149 0.11305304
-0.14628696 -0.22425303 0.014555949 -0.19932188 0.07663158 0.035306055 -0.15574999 -0.07151851
0.0881956 -0.1449372 0.009770391 -0.09220128 -0.22609176 -0.00538979 0.04148615 0.049175143
-0.21368466 0.07176116 -0.14137009 0.1303781 0.10326356 -0.1984064 0.10340431 0.007837049
-0.117174 0.0061195353 0.092303075 -0.19700447 0.11411465 -0.20287175 -0.005586239 -0.15828142
-0.0663081 -0.07163251 -0.0270723 -0.17584898 0.11572261 0.09079355 -0.03550697 -0.04251477
0.16629763 0.040283214 -0.12750626 0.024101092 -0.0039404444 -0.03706116 -0.023587432 -0.062766485
-0.091669105 0.022323053 0.08988136 0.12135213 0.05517316 0.04985664 0.09861312 0.131274
0.10849371 0.27393684 -0.11080241 -0.00080873724 0.089566804 -0.2711956 0.020144397 -0.09029897
0.004849083 0.036808517 -0.0022658678 -0.25202915 -0.035327468 0.020602683 0.025286727 0.10781488
0.28710434 0.20881696 0.14933437 0.0024038854 0.30544534 -0.25035477 -0.19619918 -0.0037425752
-0.5592633 -0.004583005 0.11785362 0.28190666 -0.009458961 0.060244437 0.02448175 0.13527896
0.06571221 0.32860363 -0.0059298147 -0.005155185 -0.041015897 -0.3178101 0.030525465 -0.072731346
-0.0545327 -0.049276587 -0.11715091 -0.24028869 -0.21195525 -0.055488486 -0.14022525 0.25379747
0.06476842 0.07417101 0.11828838 -0.21451584 0.18057533 -0.09947395 -0.0990533 -0.09219139
-0.059981167 -0.017522728 -0.057445213 0.04357662 -0.06196834 0.21172631 0.004906525 0.07092236
0.05273487 0.24532688 -0.032461543 -0.07608594 -0.10347183 0.17791006 -0.019193236 -0.21360561
-0.012091061 -0.056562863 -0.0078439405 0.17411299 -0.05331462 0.002164825 0.09925313 0.12806468
00000000: 0c52 2a3e 564e 163e b9a4 d23d 206a e8bd
00000010: 65da 8db9 37c8 c63d 1ecd b7bd b5ea d03d
00000020: 5f0c d73d 14b9 8cbc f5a8 8dbd 56c8 26be
00000030: b97e e8bd 3466 96bd 2583 87bd c3b2 8dbe
00000040: 5f1a a9bd 50e9 8c3c 50b2 25be 596d a1bd
00000050: 10df 763c 21d2 b4bd 359c 86bd a3c8 2ebe
00000060: e56f 8dbe d596 80bd e748 85bd f2d2 8dbd
00000070: bf68 113d b8d8 09bd 1f12 6cba 0743 59bc
00000080: 0ee9 f2bd c3e1 973c 81f4 80bd 1b8e 55bd
00000090: 5794 fdbd 2f81 8f3d 0141 833d fc4a 8a3d
000000a0: cbff 823d b032 c7bc e3fa ecbc db47 f0bd
000000b0: 2b28 e4bd c2be e1bd f043 0f3d d315 64be
000000c0: fea5 76bd 2fa2 91bd 1c72 f63d 8c7f 0bbe
000000d0: 9a68 c43d 34d2 71be 6e14 afbb 49e0 37bd
000000e0: 13ed 50be 5260 e9bd 7bca f5bd 8e45 32be
000000f0: 0c73 653d ead8 ec3b fbe2 6fbd f8a8 e6bd
00000100: 5b22 a73c 1f0b a3be a277 c2bd ca91 51bd
00000110: 2c49 81be 7233 043e 8174 9a3c bff9 303e
00000120: 6491 f8bd de45 5b3c 24bd 80be 3e60 84bd
00000130: 4c1e 8bbc 7299 d6bd 7285 053d d78f d3bd
00000140: 6e6c 2cbd 4c54 b9bc 4f2c 80bd b180 bc3d
00000150: 9545 1c3e 6187 d2bd c6ed 553d 2b2e 45bd
00000160: 442b a1bd fff0 b9bd 4a1d 2ebd 961f acbe
00000170: b03c 573e 69eb aa3d 91f0 483d 25d5 613d
00000180: fa6f d23d 28d2 7bbb f481 983d bf44 ffbc
00000190: 0c77 97bd f722 6dbd 9e60 cabc 1c3a 163e
000001a0: 604e 5ebe 8e54 4a3c 1b70 c1bd c310 1e3e
000001b0: 332e bcbd f207 2fbd 6ed7 e43c d05c 0dbe
000001c0: 4465 59be 7a49 75be e77c 943d 4c99 4ebe
000001d0: 8d02 503d 71ca 86be fcb3 46bd 5a88 e73d
000001e0: 40cc 15be 96a2 65be 137c 6e3c 091b 4cbe
000001f0: 05f1 9c3d 159d 103d ed7c 1fbe 4c78 92bd
00000200: e59f b43d 6b6a 14be fd13 203c 06d4 bcbd
00000210: 9984 67be d69c b0bb 62ed 293d e06b 493d
00000220: 27d0 5abe 84f7 923d 52c3 10be d681 053e
00000230: d87b d33d 0c2b 4bbe a4c5 d33d f766 003c
00000240: ecf8 efbd 6286 c83b 6509 bd3d 8abb 49be
00000250: f1b4 e93d 9dbd 4fbe c50c b7bb 8614 22be
00000260: 8bcc 87bd 11b4 92bd bac6 ddbc c111 34be
00000270: faff ec3d f8f1 b93d c26f 11bd f823 2ebd
00000280: ed49 2a3e 0300 253d 0091 02be a76f c53c
00000290: d81e 81bb 71cd 17bd 6e3a c1bc b78b 80bd
000002a0: 03bd bbbd d6de b63c b813 b83d 7787 f83d
000002b0: 40fd 613d 7a36 4c3d adf5 c93d b16c 063e
000002c0: f331 de3d 7341 8c3e 60ec e2bd 7001 54ba
000002d0: cd6e b73d 26da 8abe dd05 a53c abee b8bd
000002e0: 0ee5 9e3b 87c4 163d f47e 14bb f709 81be
000002f0: 89b3 10bd f5c6 a83c 1c26 cf3c 0cce dc3d
00000300: 57ff 923e 1dd4 553e 1ceb 183e 818a 1d3b
00000310: 5563 9c3e 802e 80be 70e8 48be fe45 75bb
00000320: e12b 0fbf 082d 96bb 3d5d f13d 1256 903e
00000330: c2f9 1abc dfc2 763d f38d c83c 9186 0a3e
00000340: 2094 863d bc3e a83e e44e c2bb d3ec a8bb
00000350: 4900 28bd 01b8 a2be 8a10 fa3c 2cf4 94bd
00000360: ae5d 5fbd 3fd6 49bd d1ec efbd 3d0e 76be
00000370: cc0a 59be e547 63bd 3597 0fbe bef1 813e
00000380: 4ea5 843d f8e6 973d 2e41 f23d 0aaa 5bbe
00000390: bde8 383e 00b9 cbbd 75dc cabd d7ce bcbd
000003a0: d0ae 75bd d38b 8fbc ac4b 6bbd 667d 323d
000003b0: 84d2 7dbd c8ce 583e eac6 a03b be3f 913d
000003c0: 8500 583d f836 7b3e 65f6 04bd f2d2 9bbd
000003d0: 0ae9 d3bd 0e2e 363e 223b 9dbc 6ebb 5abe
000003e0: 9619 46bc 76ae 67bd df83 00bc ad4a 323e
000003f0: 6e60 5abd bddf 0d3b 3a45 cb3d 6323 033e

sequential/conv2d_2/Conv2D f4 [64, 3, 3, 64]
-0.08298714 0.29754126 0.0068500726 -0.17746545 0.0831234 0.089523785 0.19942921 -0.07759661
-0.056710668 0.043792143 0.005052612 -0.040458508 0.08802383 0.05556091 0.025759248 -0.040882632
0.1573462 0.29297322 -0.14511608 -0.16481489 0.031070191 -0.17775927 -0.15692389 -0.0036390075
0.11255248 0.15179798 0.29025194 -0.22889063 -0.019247238 0.0028310798 -0.009069005 0.18186618
-0.15648147 -0.124753766 0.19214065 0.076534964 0.059267443 -0.046628214 -0.0044729775 -0.0112710195
-0.22421648 0.06607656 -0.05437604 0.09287111 -0.13976869 -0.013456218 0.0503501 -0.019772673
-0.10323566 -0.043696906 0.07073508 0.011637837 0.13076116 0.2855914 -0.018060675 -0.0135829095
0.013019322 -0.17833905 -0.0459302 -0.08951906 -0.13310784 0.043531157 -0.042215835 -0.0013996775
-0.020885462 0.2884885 0.1675758 0.116099775 0.04009524 0.01926538 0.11570503 -0.12631492
-0.031535424 0.009899732 -0.027551956 0.09550261 0.16877517 0.1033267 0.18831944 -0.01816887
0.06870851 -0.058749728 0.2015587 -0.10915118 -0.10194319 -0.19758962 0.1494835 0.1255453
0.09622214 -0.06017842 0.22657956 -0.14697067 -0.07806073 -0.17664555 -0.06337386 -0.03243031
0.0042258766 0.01332276 0.104458176 -0.051814135 -0.11847033 -0.20908055 -0.060675446 -0.1726858
-0.11109126 0.038546197 0.0787051 0.07794211 0.06354994 0.05391693 0.027757293 -0.030638535
0.09206865 0.115288995 0.20116796 -0.16454625 0.14533286 0.17916082 0.010922415 0.10892969
0.09153068 -0.17333595 0.09665386 -0.093973696 -0.04478867 0.008474072 -0.047481157 -0.110594176
0.030547708 0.14132887 0.12444367 0.20866846 0.0580604 -0.20161715 -0.27973285 0.10002508
0.09785471 -0.05109821 0.059162367 -0.19336385 0.17956577 -0.085731275 0.012310457 0.04707744
0.18841965 -0.11725616 0.022347864 -0.045572914 -0.076963454 -0.06401265 0.009321244 0.22331175
0.15222254 -0.027811207 0.17648709 0.06023156 -0.21506597 0.066077664 0.062151264 0.042296946
-0.16644904 -0.055056218 -0.07312068 -0.00882119 -0.127413 -0.26343188 -0.00011427496 -0.13551554
0.08411542 0.049898714 0.098767884 0.051109508 0.071761884 0.0343187 -0.058578845 0.15061168
-0.0189307 -0.118086286 0.08565599 0.12407325 -0.08415206 0.14828943 -0.0750776 0.10279539
0.01718176 -0.07401179 -0.0077202977 -0.2781852 0.15751049 0.13559689 -0.05982791 -0.057158392
0.10792302 0.011542991 0.21841855 -0.21169755 -0.18541928 -0.23590437 0.22311321 -0.19871959
0.0037226535 0.11163539 -0.093146645 0.0339311 0.024202032 -0.12265342 0.1398326 -0.04238541
-0.007967632 0.23762676 0.13718039 -0.012281222 0.0294643 -0.11355338 0.009946784 -0.16699067
0.017398985 0.12602395 0.21992116 -0.032188557 -0.01643376 -0.1240499 -0.073121496 -0.02046445
-0.05638577 -0.20847543 0.1695882 0.12693943 -0.049059104 -0.18467118 0.12736358 0.20675988
-0.18224603 0.16495097 -0.2956486 0.18884262 0.028018093 0.12949455 -0.08005281 0.115675755
-0.0615028 -0.05255057 -0.034628004 3.7509104e-05 -0.071046494 0.074834235 -0.06734875 0.022044966
0.0031034916 0.034186356 -0.07888705 -0.1388392 0.067172006 -0.32605857 -0.06719358 0.057059214
00000000: 29f5 a9bd 5457 983e 9376 e03b 81b9 35be
00000010: 9a3c aa3d 3f58 b73d 2c37 4c3e f9ea 9ebd
00000020: 7249 68bd 645f 333d 6290 a53b d2b7 25bd
00000030: d645 b43d d693 633d 0f05 d33c 8c74 27bd
00000040: 5d1f 213e 9600 963e 4f99 14be 3cc5 28be
00000050: ea86 fe3c 8706 36be a8b0 20be 6a7c 6ebb
00000060: ea81 e63d ee70 1b3e e79b 943e 4e62 6abe
00000070: 62ac 9dbc a389 393b 2a96 14bc 213b 3a3e
00000080: ae3c 20be e77e ffbd 85c0 443e 5dbe 9c3d
00000090: 6bc2 723d 3afd 3ebd 0e92 92bb 15aa 38bc
000000a0: 0199 65be 2653 873d 69b9 5ebd 3533 be3d
000000b0: 861f 0fbe 7877 5cbc e83b 4e3d 4dfa a1bc
000000c0: 386d d3bd 87fb 32bd 8edd 903d a0ac 3e3c
000000d0: 41e6 053e 0939 923e fbf3 93bc da8a 5ebc
000000e0: ff4e 553c 839e 36be 4e21 3cbd c555 b7bd
000000f0: 6c4d 08be ba4d 323d 83ea 2cbd 6275 b7ba
00000100: fd17 abbc c4b4 933e fe98 2b3e b8c5 ed3d
00000110: e83a 243d 6ed2 9d3c c2f6 ec3d b358 01be
00000120: 4a2b 01bd 7c32 223c a4b4 e1bc df96 c33d
00000130: 66d3 2c3e f39c d33d d0d6 403e e2d6 94bc
00000140: 0cb7 8c3d 8ea3 70bd 6765 4e3e a78a dfbd
00000150: 97c7 d0bd ef54 4abe 3412 193e f28e 003e
00000160: 1d10 c53d a67d 76bd 7904 683e 7b7f 16be
00000170: 4ede 9fbd 92e2 34be 28ca 81bd a5d5 04bd
00000180: 3979 8a3b b547 5a3c 2bee d53d 0f3b 54bd
00000190: 93a0 f2bd 3619 56be d186 78bd 8cd4 30be
000001a0: d183 e3bd 9ee2 1d3d 2430 a13d 1da0 9f3d
000001b0: 7926 823d 00d8 5c3d 4363 e33c aafd fabc
000001c0: 7d8e bc3d a31c ec3d f9fe 4d3e d07e 28be
000001d0: 23d2 143e ef75 373e eef3 323c 8816 df3d
000001e0: 7074 bb3d fb7e 31be 75f2 c53d 4875 c0bd
000001f0: 5374 37bd d6d6 0a3c 9a7b 42bd 337f e2bd
00000200: 303f fa3c 84b8 103e 53dc fe3d 2fad 553e
00000210: bed0 6d3d ba74 4ebe 2539 8fbe f3d9 cc3d
00000220: 0d68 c83d 5b4c 51bd 3d54 723d 2c01 46be
00000230: 17e0 373e e193 afbd cdb1 493c 46d4 403d
00000240: 15f1 403e ff23 f0bd de12 b73c aaaa 3abd
00000250: 049f 9dbd 1019 83bd 22b8 183c d6ab 643e
00000260: 3ae0 1b3e 54d4 e3bc 08b9 343e 5eb5 763d
00000270: 413a 5cbe ba53 873d 5392 7e3d 903f 2d3d
00000280: 9e71 2abe a182 61bd 4cc0 95bd c186 10bc
00000290: 8e78 02be 8be0 86be e7a6 efb8 96c4 0abe
000002a0: b544 ac3d 9862 4c3d d146 ca3d 3458 513d
000002b0: e5f7 923d c491 0c3d 5ff0 6fbd f339 1a3e
000002c0: 8e14 9bbc 39d7 f1bd 686c af3d 1e1a fe3d
000002d0: ea57 acbd 2fd9 173e 49c2 99bd 6486 d23d
000002e0: c3c0 8c3c 7e93 97bd 8dfa fcbb 4a6e 8ebe
000002f0: 6e4a 213e e9d9 0a3e 1c0e 75bd eb1e 6abd
00000300: bf06 dd3d d01e 3d3c 1da9 5f3e 3ec7 58be
00000310: 8dde 3dbe ea90 71be ca77 643e 267d 4bbe
00000320: c3f7 733b 18a1 e43d abc3 bebd 56fb 0a3d
00000330: 5743 c63c b731 fbbd 4730 0f3e 539c 2dbd
00000340: ac8a 02bc 6e54 733e 0479 0c3e 2e37 49bc
00000350: 1e5f f13c ad8e e8bd d6f7 223c 9aff 2abe
00000360: 5188 8e3c 6c0c 013e 0333 613e 26d8 03bd
00000370: 18a0 86bc e00d febd b9c0 95bd 10a5 a7bc
00000380: c4f4 66bd 957a 55be 87a8 2d3e 69fc 013e
00000390: 33f2 48bd 711a 3dbe 996b 023e ddb8 533e
000003a0: b49e 3abe e8e8 283e 415f 97be f65f 413e
000003b0: 3386 e53c 389a 043e baf2 a3bd 69e7 ec3d
000003c0: 5cea 7bbd 443f 57bd 18d6 0dbd 1853 1d38
000003d0: d380 91bd b142 993d 24ee 89bd a597 b43c
000003e0: f363 4b3b fe06 0c3d 898f a1bd dd2b 0ebe
000003f0: 7a91 893d 26f1 a6be ca9c 89bd ecb6 693d
