examples/lstm2.tflite (tflite, 6380 bytes, 5 tensors)

dense_1/kernel/transpose f4 [1, 6]
-0.6768229 0.54124373 1.0322499 -0.26129794 -0.64947265 0.76698357
00000000: 4444 2dbf f38e 0a3f c420 843f d8c8 85be
00000010: d743 26bf 0959 443f

lstm_1/MatMul_bias f4 [24]
0.0 0.0 0.0 0.0 0.0 0.0 0.0 0.0
0.0 0.0 0.0 0.0 0.0 0.0 0.0 0.0
0.0 0.0 0.0 0.0 0.0 0.0 0.0 0.0
00000000: 0000 0000 0000 0000 0000 0000 0000 0000
00000010: 0000 0000 0000 0000 0000 0000 0000 0000
00000020: 0000 0000 0000 0000 0000 0000 0000 0000
00000030: 0000 0000 0000 0000 0000 0000 0000 0000
00000040: 0000 0000 0000 0000 0000 0000 0000 0000
00000050: 0000 0000 0000 0000 0000 0000 0000 0000

lstm_1/bias f4 [24]
0.8114964 0.6878998 0.5003408 -0.3378236 0.46354654 -0.1048625 1.0 1.0
1.0 1.0 1.0 1.0 0.4391135 0.28772262 0.31830844 -0.062725075
-0.3662012 -0.23563582 0.8119776 0.7107348 0.5031677 -0.33033577 0.4711154 -0.09619184
00000000: 3abe 4f3f 341a 303f 5616 003f 37f7 acbe
00000010: f955 ed3e 27c2 d6bd 0000 803f 0000 803f
00000020: 0000 803f 0000 803f 0000 803f 0000 803f
00000030: 7cd3 e03e 6150 933e 53f9 a23e 0176 80bd
00000040: b97e bbbe 844a 71be c4dd 4f3f b7f2 353f
00000050: 99cf 003f c521 a9be 0a36 f13e 3a00 c5bd

lstm_1/kernel/transpose f4 [24, 1]
-0.78892803 -0.06640846 0.35161418 0.8287389 0.809978 -0.64194155 0.48032156 0.2666153
-0.12920094 -0.046929717 -0.45629832 -0.15663216 -0.8556646 0.7620043 0.7551906 0.14026883
-0.3429978 0.12748961 -0.7778984 0.5217833 0.5206192 0.43844867 0.42333868 -0.53252035
00000000: 30f7 49bf 2901 88bd c606 b43e 3c28 543f
00000010: b85a 4f3f 4856 24bf b5ec f53e cd81 883e
00000020: 404d 04be 6039 40bd ef9f e9be 2e64 20be
00000030: d60c 5bbf b712 433f 2c54 413f a2a2 0f3e
00000040: 689d afbe a38c 023e 5924 47bf 9793 053f
00000050: 4d47 053f 587c e03e d9bf d83e 4153 08bf

lstm_1/recurrent_kernel/transpose f4 [24, 6]
-0.02257967 0.043456413 0.30239257 -0.20567118 -0.074365966 -0.0929496 0.00019303386 -0.003580429
0.1788821 0.13906814 -0.13194261 -0.2936961 -0.08762822 0.0013085408 -0.40365827 -0.022184055
0.014901738 -0.21936503 0.16428763 0.072828144 0.21143232 -0.25273097 -0.21754517 0.09741428
0.3846452 0.18493149 0.20381182 -0.14378896 -0.2084425 0.18730003 0.14259084 -0.047009405
0.14904216 -0.060763523 -0.1621896 0.1312862 -0.15462045 -0.059371382 0.19501221 -0.10580888
-0.23217323 -0.22936071 -0.002102913 0.064688146 0.038784742 0.22142297 -0.16029604 -0.37536016
-0.32715628 0.13923661 -0.07097789 -0.032542452 0.014878314 0.4054578 -0.06035612 0.25173348
0.11893318 0.14437479 0.007902586 0.0103300065 0.3641963 -0.5088895 -0.039992154 -0.09216384
-0.06142371 0.14505985 -0.15009049 0.086118385 0.3308316 -0.4214062 0.48624292 0.03992995
0.09069364 -0.012836952 0.17024978 -0.22920811 0.1529987 -0.31904632 0.122858085 0.06575153
0.091771945 0.11162639 -0.07356466 -0.06577571 0.33217612 0.41962692 -0.105041355 -0.07918558
0.023805687 -0.0627029 -0.055794805 0.12399122 0.13701497 0.4639668 -0.0645503 -0.026402136
-0.07334791 -0.059045587 -0.11495655 0.040152006 -0.12168806 0.095367685 0.07477892 0.056080017
0.13821675 -0.14715019 -0.23102032 -0.20438291 -0.14502057 0.10578313 -0.14780489 -0.16759187
0.2448257 -0.3871378 -0.37223843 0.11535821 -0.16456327 -0.3013667 -0.45508957 0.1776805
-0.15122713 -0.4830085 -0.01838518 -0.16502243 -0.25257453 -0.22320895 0.18494663 0.31131488
-0.44953763 -0.289921 -0.20313996 -0.14405349 -0.21683276 -0.06664831 0.00025516003 -0.1880877
0.07135279 0.017622402 0.30879742 -0.19441895 -0.290715 -0.07779832 0.24645853 0.024298662
00000000: 00f9 b8bc 5aff 313d 33d3 9a3e 779b 52be
00000010: 2f4d 98bd 5c5c bebd 2269 4a39 a1a5 6abb
00000020: df2c 373e e167 0e3e f71b 07be 565f 96be
00000030: 6d76 b3bd 5883 ab3a 4cac cebe 56bb b5bc
00000040: 6b26 743c 3aa1 60be 043b 283e ec26 953d
00000050: b781 583e f465 81be 29c4 5ebe 2381 c73d
00000060: 37f0 c43e ae5e 3d3e 0cb4 503e 6a3d 13be
00000070: f371 55be 94cb 3f3e 5503 123e ef8c 40bd
00000080: 829e 183e 2ce3 78bd 0815 26be e46f 063e
00000090: d354 1ebe 682f 73bd 48b1 473e 53b2 d8bd
000000a0: d2be 6dbe 89dd 6abe 07d1 09bb 387b 843d
000000b0: c0dc 1e3d b4bc 623e a524 24be 352f c0be
000000c0: 0781 a7be 0b94 0e3e db5c 91bd 3c4b 05bd
000000d0: 2cc4 733c 2a98 cf3e fb37 77bd 36e3 803e
000000e0: 3d93 f33d fcd6 133e d979 013c 303f 293c
000000f0: f077 ba3e 9546 02bf d0ce 23bd 65c0 bcbd
00000100: 6e97 7bbd 928a 143e 52b1 19be d65e b03d
00000110: c262 a93e 8ec2 d7be d5f4 f83e 968d 233d
00000120: 96bd b93d 1452 52bc f555 2e3e 88b5 6abe
00000130: b1ab 1c3e 0a5a a3be 059d fb3d bda8 863d
00000140: eef2 bb3d 609c e43d 12a9 96bd 6ab5 86bd
00000150: fd12 aa3e 57d9 d63e ec1f d7bd 0d2c a2bd
00000160: 2504 c33c 616a 80bd 1889 64bd 1cef fd3d
00000170: a74d 0c3e 0e8d ed3e f332 84bd 4b49 d8bc
00000180: 6e37 96bd c9d9 71bd 576e ebbd 6e76 243d
00000190: 9737 f9bd 2250 c33d b125 993d 29b4 653d
000001a0: b188 0d3e 8aae 16be 9790 6cbe c149 51be
000001b0: 4680 14be d3a4 d83d 2a5a 17be 349d 2bbe
000001c0: 97b3 7a3e ed36 c6be 0996 bebe ed40 ec3d
000001d0: 4683 28be bc4c 9abe 8001 e9be e1f1 353e
000001e0: 49db 1abe e44c f7be 849c 96bc a4fb 28be
000001f0: 7351 81be e390 64be a662 3d3e aa64 9f3e
00000200: cc29 e6be 8670 94be ec03 50be c282 13be
00000210: 6809 5ebe e97e 88bd 00c7 8539 109a 40be
00000220: 6921 923d db5c 903c b21a 9e3e c315 47be
00000230: 99d8 94be ba54 9fbd a05f 7c3e fd0d c73c
